notebooks/tflite_smart_farm_model.tflite (tflite, 3628 bytes, 6 tensors)

arith.constant f4 [3, 16]
-0.21979928 -0.7185493 -2.248137 0.9313287 0.60810065 -0.0508391 -3.8090863 -0.8122896
-2.4758995 -1.0633788 -0.13006394 -4.7740793 0.6720256 0.4629009 0.10931509 -2.9890487
0.3063195 -0.7945625 -0.00917591 -0.6792291 -1.2792366 0.99940515 -0.08545439 0.5717791
0.21972218 -0.918359 -2.41395 -0.8940859 -1.1329799 -1.1096536 -4.2932987 -2.359947
-0.40831873 1.152733 0.5037313 -0.1329632 0.09384857 -0.33492544 1.1886249 -0.8622629
0.20648342 1.3865627 0.031147957 1.9511008 -0.4863037 -0.071231626 0.25586614 2.7416685
00000000: 1013 61be d9f2 37bf 7ae1 0fc0 8f6b 6e3f
00000010: 7cac 1b3f a93c 50bd 12c8 73c0 36f2 4fbf
00000020: 2375 1ec0 cc1c 88bf 7b2f 05be 42c5 98c0
00000030: df09 2c3f 5901 ed3e 97e0 df3d 934c 3fc0
00000040: e9d5 9c3e 7368 4bbf 8e56 16bc f5e1 2dbf
00000050: 06be a3bf 04d9 7f3f b602 afbd 1d60 123f
00000060: dafe 603e 9319 6bbf 287e 1ac0 d0e2 64bf
00000070: 7c05 91bf 2109 8ebf b462 89c0 5f09 17c0
00000080: 270f d1be c18c 933f 89f4 003f 8127 08be
00000090: ae33 c03d 597b abbe dc24 983f 43bd 5cbf
000000a0: 6470 533e e37a b13f 002a ff3c acbd f93f
000000b0: ccfc f8be e3e1 91bd e300 833e 7f77 2f40

arith.constant1 f4 [16, 16]
-0.1236262 -0.06937048 0.33049694 -0.16885139 -0.26268977 -0.23253648 -0.17285638 -0.42102256
-0.41149476 0.2893923 -0.45301652 -0.059025906 0.18281981 -0.0031452477 -0.018981293 -0.04330483
1.2016071 0.22002837 0.2701527 0.07060184 0.5394841 0.74664825 0.021146068 0.36617842
2.2801013 -0.23517735 -0.3477101 0.41806272 -0.19932483 0.024004433 0.5016815 -0.027604958
1.2690059 0.10969922 0.4132343 -0.13710065 0.30473506 2.0640473 0.08116177 0.24499218
2.2476933 0.55271435 -0.5274658 0.22763318 0.17372489 1.214695 -0.36043063 -0.7048648
-0.9316905 0.25884113 0.2117821 0.6713749 0.4188558 -0.8571969 0.901935 -0.67509735
-1.5788093 0.0277221 0.48078436 0.04613566 0.8193314 -0.33220714 0.36734447 0.571115
-0.9592297 0.32108134 0.44018766 0.71148777 0.20557337 -0.6673173 0.46941277 -0.24903065
-0.94568646 0.44478998 0.10960256 0.6463251 0.24096118 -0.26201168 0.65104175 0.4120507
-1.2347207 -0.8625293 0.5948655 -1.5232662 0.29287565 0.1828721 -2.7339973 -0.042102084
-0.86246336 0.4346815 0.41165093 -0.24243504 0.25146246 0.5414363 -3.3901904 0.7473653
0.85121447 -0.4410529 -0.24524654 0.34676903 0.76447237 0.5015534 0.50466573 0.7855597
3.400786 -0.61704135 -0.0798602 0.022565046 1.6627762 0.4149965 0.4065065 0.7526355
-1.4652869 -0.3839227 -0.10962729 -1.0070184 0.30673996 0.3534187 -2.0092025 -0.03086991
-0.50557745 0.44518414 0.62066996 -1.5997635 0.35925448 0.56510234 -3.9766147 0.7453046
1.8393446 -0.5651789 0.48381644 0.019939514 0.9073673 0.9445731 0.15334392 1.3563151
1.7772682 0.14448942 -0.27638423 0.11663278 0.95663476 2.9787498 -0.027040953 -0.21269959
0.94626474 -0.16888423 0.17918642 0.67655593 -0.10031553 -0.1838529 1.0854272 0.021913925
2.0191023 -0.6889726 0.38485584 0.18063076 0.65410143 0.12669624 0.10368522 0.08693828
1.5101025 0.23696579 -0.40856776 1.5714928 0.37730122 0.15551852 0.3011565 -0.17528687
1.425984 0.5822146 0.10499059 0.97400177 -1.7271882 -0.4598942 2.4309785 0.13176496
0.08175834 0.114953645 -0.10153926 0.588024 -0.12517281 0.20477709 1.1168201 0.12387493
1.0588651 -0.6712857 0.44353837 0.06371267 1.9044039 0.41671538 -0.056626484 -0.6192699
-1.0453322 0.78791517 -0.12892814 0.4705845 -0.20045623 -0.7520593 0.60571915 -0.3791468
-1.9601364 0.4326439 0.09199016 0.09059373 0.68767047 -0.010053196 0.3606657 0.8475626
-0.012728451 0.87206525 0.3201819 0.7393938 0.37561318 -0.6160858 0.07859851 0.025695583
-0.60670286 0.45770362 0.12980102 0.24836603 0.5151013 -0.2598449 0.7461226 0.15126571
0.68545926 0.9309082 0.28830332 1.541817 0.6510582 -0.4951013 0.74348474 0.23394907
1.5281454 0.10848729 -0.26918897 1.3180391 -1.0059415 -0.17514291 2.5256424 0.24221453
1.8029603 -0.5534223 -0.28135344 0.2819934 0.7241417 0.36458993 1.6997361 0.44065472
2.203927 0.08388356 -0.032369766 0.34554666 1.7805432 -0.0506654 -0.19651118 -0.2734532
00000000: bc2f fdbd 1c12 8ebd e536 a93e 61e7 2cbe
00000010: 467f 86be 0b1e 6ebe 4301 31be 4590 d7be
00000020: 71af d2be 3a2b 943e c8f1 e7be 26c5 71bd
00000030: 1e35 3b3e 8020 4ebb a87e 9bbc 6860 31bd
00000040: 43ce 993f 1e4f 613e 7451 8a3e b397 903d
00000050: a11b 0a3f 5724 3f3f 853a ad3c bd7b bb3e
00000060: 2eed 1140 55d2 70be 0f07 b2be 510c d63e
00000070: cf1b 4cbe f2a4 c43c 336e 003f cb23 e2bc
00000080: c96e a23f fca9 e03d 7293 d33e 1d64 0cbe
00000090: 3c06 9c3e 5a19 0440 2438 a63d 3bdf 7a3e
000000a0: 35da 0f40 b07e 0d3f 0008 07bf ac18 693e
000000b0: f0e4 313e 207b 9b3f 5d8a b8be 0572 34bf
000000c0: 4583 6ebf d386 843e 68dd 583e 3adf 2b3f
000000d0: 4474 d63e 4271 5bbf 36e5 663f 2ed3 2cbf
000000e0: 6c16 cabf 7519 e33c 5e29 f63e bff8 3c3d
000000f0: b4bf 513f 0e17 aabe 9314 bc3e 9834 123f
00000100: 1490 75bf c664 a43e 4760 e13e 1024 363f
00000110: d381 523e 4ed5 2abf df56 f03e e401 7fbe
00000120: 8218 72bf 83bb e33e 4f77 e03d 9075 253f
00000130: 87be 763e 6526 86be acaa 263f 4ff8 d23e
00000140: 540b 9ebf b8ce 5cbf 1b49 183f 63fa c2bf
00000150: ccf3 953e d342 3b3e d0f9 2ec0 3c73 2cbd
00000160: 66ca 5cbf 938e de3e e9c3 d23e e440 78be
00000170: b0bf 803e 929b 0a3f e1f8 58c0 5553 3f3f
00000180: 31e9 593f b0d1 e1be e921 7bbe b68b b13e
00000190: 76b4 433f ce65 003f c631 013f 711a 493f
000001a0: 7aa6 5940 6cf6 1dbf bf8d a3bd 55da b83c
000001b0: dad5 d43f 6c7a d43e 9f21 d03e b8ac 403f
000001c0: 858e bbbf 8491 c4be 4684 e0bd fbe5 80bf
000001d0: 050d 9d3e 4cf3 b43e c696 00c0 e5e2 fcbc
000001e0: 866d 01bf 2def e33e 3ae4 1e3f 0dc5 ccbf
000001f0: 34f0 b73e 8caa 103f db80 7ec0 48cc 3e3f
00000200: a56f eb3f 90af 10bf cab6 f73e 3158 a33c
00000210: 3949 683f 8bcf 713f 3006 1d3e bc9b ad3f
00000220: 867d e33f 09f5 133e 3c82 8dbe 2bdd ee3d
00000230: 04e6 743f d6a3 3e40 fd84 ddbc eccd 59be
00000240: 683e 723f fdef 2cbe a57c 373e c532 2d3f
00000250: 3b72 cdbd ef43 3cbe 47ef 8a3f d584 b33c
00000260: f938 0140 8260 30bf d30b c53e 45f7 383e
00000270: 3173 273f a9bc 013e eb58 d43d b20c b23d
00000280: 0a4b c13f 29a7 723e cb2f d1be ad26 c93f
00000290: a02d c13e 3f40 1f3e 2f31 9a3e 677e 33be
000002a0: a586 b63f 040c 153f 4e05 d73d 2e58 793f
000002b0: 8114 ddbf 4177 ebbe 2795 1b40 65ed 063e
000002c0: eb70 a73d d16c eb3d d1f3 cfbd be88 163f
000002d0: 4d2d 00be 16b1 513e f6f3 8e3f 24b2 fd3d
000002e0: e488 873f 61d9 2bbf 7617 e33e ca7b 823d
000002f0: 82c3 f33f b85b d53e 2cf1 67bd 7988 1ebf
00000300: 72cd 85bf cfb4 493f bd05 04be 74f0 f03e
00000310: 6644 4dbe f586 40bf 6910 1b3f 881f c2be
00000320: c0e5 fabf 8083 dd3e 5665 bc3d 3589 b93d
00000330: 2c0b 303f 29b6 24bc 2da9 b83e ddf9 583f
00000340: fe8a 50bc ab3f 5f3f e2ee a33e e948 3d3f
00000350: 5f50 c03e cdb7 1dbf 41f8 a03d 8b7f d23c
00000360: e150 1bbf 2158 ea3e 8fea 043e aa53 7e3e
00000370: aedd 033f 640a 85be e401 3f3f 66e5 1a3e
00000380: 427a 2f3f 0050 6e3f 7e9c 933e 425a c53f
00000390: c0ab 263f eb7d fdbe 0455 3e3f 5890 6f3e
000003a0: 459a c33f 962e de3d 23d3 89be 81b5 a83f
000003b0: b1c2 80bf aa58 33be 20a4 2140 1607 783e
000003c0: 67c7 e63f 15ad 0dbf 8f0d 90be 7061 903e
000003d0: 5a61 393f 88ab ba3e f490 d93f 7f9d e13e
000003e0: 240d 0d40 25cb ab3d 2996 04bd 7eeb b03e
000003f0: d7e8 e33f 8686 4fbd 3a3a 49be 0f02 8cbe

arith.constant2 f4 [3]
-0.014793508 0.49687007 -0.34659806
00000000: 7860 72bc c165 fe3e 4d75 b1be

sequential_1/dense_1_2/Add/ReadVariableOp f4 [16]
-0.09904938 -0.16688465 -0.091258645 0.1440729 0.30987597 0.735012 -0.4761697 0.58745927
-0.23159929 -0.33422822 0.46898735 -0.6908204 0.16706413 0.23748308 0.37863576 -0.8056807
00000000: 67da cabd cfe3 2abe d0e5 babd d987 133e
00000010: 10a8 9e3e bf29 3c3f 84cc f3be bb63 163f
00000020: 5d28 6dbe f61f abbe 1c1f f03e 9bd9 30bf
00000030: dc12 2b3e c42e 733e 8cdc c13e 1741 4ebf

sequential_1/dense_1/Add/ReadVariableOp f4 [16]
-0.24137673 0.31507984 0.4473154 0.36592543 0.22362965 0.48865688 -0.10501417 -0.50845975
-0.15412451 0.69530517 0.50631684 0.17173031 -0.57690126 0.4140867 0.85697335 0.58139026
00000000: 762b 77be 2552 a13e 8606 e53e 945a bb3e
00000010: 2cff 643e 3c31 fa3e ab11 d7bd 6b2a 02bf
00000020: d1d2 1dbe 85ff 313f fb9d 013f 12da 2f3e
00000030: cdaf 13bf 2c03 d43e 9b62 5b3f fed5 143f

sequential_1/dense_1/MatMul f4 [16, 3]
-0.33452988 0.50965786 0.86427814 0.21673189 0.8528888 -0.24123852 0.36777818 -0.07501453
-0.08087649 -0.11396449 -0.5409054 -0.9230008 0.66009504 0.36878675 0.09638627 0.48219404
0.5420799 0.9371989 0.7644978 0.11702831 -1.0769129 0.36766928 -0.44173273 0.5291332
-0.0058565703 -0.95053595 -0.89992446 -0.24194874 0.11255255 -0.015083879 0.20080554 -0.85310334
0.79685515 -1.3206828 -0.42342356 -0.390691 -0.43326902 0.017219177 -0.5136944 1.6417124
0.009491689 0.01832576 0.0021661988 -0.020503879 -1.125865 0.09143379 -1.0987037 -0.55342376
00000000: 8047 abbe f078 023f 5541 5d3f f7ee 5d3e
00000010: ec56 5a3f 3b07 77be 6c4d bc3e 38a1 99bd
00000020: 93a2 a5bd 3766 e9bd c778 0abf c849 6cbf
00000030: fdfb 283f 9ed1 bc3e 2a66 c53d 23e2 f63e
00000040: c0c5 0a3f 44ec 6f3f 21b6 433f 8aac ef3d
00000050: 48d8 89bf 263f bc3e cb2a e2be 4675 073f
00000060: 79e8 bfbb 5356 73bf 7361 66bf 69c1 77be
00000070: f481 e63d 6022 77bc f89f 4d3e fb64 5abf
00000080: b3fe 4b3f 220c a9bf f9ca d8be a708 c8be
00000090: 70d5 ddbe 3b0f 8d3c 7a81 03bf a223 d23f
000000a0: 0783 1b3c e71f 963c c9f6 0d3b c0f7 a7bc
000000b0: 581c 90bf a441 bb3d 53a2 8cbf 2ead 0dbf
